Apps/oect reservoir computing/results/emg_0strain_non_resize_0527/downsampled_img_mode.pt (torch, 1895 bytes, 2 tensors)

weight f4 [5, 16]
0	0x3e98d7b1	0.2985206
1	0xbf87a23a	-1.0596383
2	0xbf3ba196	-0.73293436
3	0xbfa7d9e7	-1.3113374
4	0xbfe2a2da	-1.7705948
5	0xc02aba54	-2.6676226
6	0xc04830ff	-3.1279905
7	0xc0497f61	-3.1483996
8	0xc035e875	-2.842313
9	0xc0255a61	-2.5836413
10	0xc02d57bb	-2.7084796
11	0xc05ac4e0	-3.4182663
12	0xc04a2529	-3.158518
13	0xc02622fa	-2.5958848
14	0xbff6f276	-1.9292743
15	0xc02c7f20	-2.695259
16	0x4028a63e	2.6351466
17	0x3ff6fc29	1.9295703
18	0x3fd5eeba	1.6713479
19	0x3fb291ad	1.3950707
20	0x3fb62ba2	1.4232066
21	0x3f9ea715	1.2394739
22	0x3fad2647	1.3527306
23	0x3fb3e40a	1.4053967
24	0x3f9e417b	1.2363733
25	0x3fb9ab4b	1.45054
26	0x3fb6eb0f	1.4290484
27	0x3fb615b6	1.4225376
28	0x3fd2621e	1.6436193
29	0x3fd23d8f	1.6425036
30	0x4008b86d	2.1362565
31	0x4022cad3	2.5436294
32	0x3d87657a	0.06611152
33	0x3ccab3d1	0.024743946
34	0xbe0d2714	-0.13784438
35	0xbd4fe4f4	-0.050755456
36	0xbddec985	-0.108782806
37	0xbc719402	-0.0147447605
38	0x3d704c60	0.058666587
39	0x3aad9da6	0.0013245835
40	0x3e3878ae	0.18014786
41	0xbc07182f	-0.008245512
42	0x3d0a9850	0.033836663
43	0x3d9868bf	0.07441854
44	0xbd815da7	-0.06316691
45	0x3eaa1ff6	0.3322751
46	0x3e19c632	0.15017012
47	0x3e9f581b	0.31121907
48	0xbfd60551	-1.6720372
49	0xbf844778	-1.033431
50	0xbf07a27d	-0.5298231
51	0xbf21ba99	-0.6317535
52	0xbef3e5e7	-0.4763634
53	0xbe73dc75	-0.23814566
54	0xbc8f603f	-0.017501948
55	0xbe887aa1	-0.26656058
56	0xbe94c6a6	-0.29057807
57	0xbec68816	-0.387757
58	0xbee20f9c	-0.44152534
59	0xbf0c1578	-0.5472026
60	0xbf4b7960	-0.7948208
61	0xbf1a5fb3	-0.60302275
62	0xbf9a5152	-1.2056067
63	0xbfc78df9	-1.5590202
64	0xbf5794c5	-0.8421138
65	0xbf21df7f	-0.6323165
66	0xbed1150c	-0.4083637
67	0xbed86bf4	-0.42269862
68	0xbe937a1a	-0.28804094
69	0xbe1282cc	-0.14307708
70	0x3da02e41	0.07821322
71	0xbdffbf75	-0.124876894
72	0xbe25b72a	-0.16183153
73	0xbd5c7dcd	-0.05383091
74	0x3d330368	0.04370442
75	0xbe0c9bb5	-0.13731273
76	0xbe1ec94f	-0.1550648
77	0xbd855e49	-0.06512124
78	0xbe6ba000	-0.23010254
79	0xbed65607	-0.4186251

bias f4 [5]
0	0x411b4954	9.705402
1	0xc170bd8e	-15.046278
2	0x3f07ae53	0.5300037
3	0x40a0fdf9	5.0310025
4	0x4042839f	3.0392835
