Apps/oect reservoir computing/results/没拉伸/downsampled_img_mode.pt (torch, 1895 bytes, 2 tensors)

weight f4 [5, 16]
000000 46 cb 99 be d9 1a 5e be cc de 89 bf bc 2f 04 bf
       -0.30037898 -0.21689929 -1.0771117 -0.51635337
000010 74 5a 45 bf f8 5e 45 bf 74 39 a4 bf 16 00 d7 bf
       -0.77091146 -0.77098036 -1.2830033 -1.6796901
000020 79 24 96 bf 9c d8 89 bf 44 4c fb be 55 a3 91 bf
       -1.172988 -1.0769229 -0.49081624 -1.137797
000030 cd da aa bf f0 ac 01 bf c0 96 29 bf bd ca 7e bf
       -1.3348023 -0.50654507 -0.6624565 -0.99528104
000040 b7 3f 8c 3f 04 20 85 3f 38 ac 6d 3f 2f f3 61 3f
       1.0956944 1.0400395 0.9284091 0.88261694
000050 80 b1 8e 3f 5e 0d 3f 3f 59 36 72 3f be 1f 8a 3f
       1.1147919 0.7462977 0.9461418 1.0790937
000060 53 1a 42 3f 7f 42 3b 3f d4 8d 43 3f 5d 31 4a 3f
       0.7582142 0.7314834 0.7638829 0.7898157
000070 b7 25 3e 3f 71 81 1a 3f 7c 11 80 3f 5a 2f 88 3f
       0.742763 0.6035376 1.0005336 1.063945
000080 44 bd 74 be 4e 04 44 bc fd b9 1a 3d 8c 0c b9 3d
       -0.23900324 -0.011963917 0.03777503 0.09035596
000090 9f 45 84 be 65 ed 15 be f7 3e 8d 3e 92 dc f8 3e
       -0.25834367 -0.1464134 0.275871 0.48605782
0000a0 bb 2d d7 3e 96 22 0f 3f ae a0 b0 3e a2 97 84 3e
       0.42027077 0.5591215 0.3449759 0.25896937
0000b0 fb 9b d2 3e b1 1f 26 3e f6 6a 88 3e a2 4b 8f 3d
       0.4113463 0.16223027 0.26644105 0.06996848
0000c0 6d 50 54 bf 31 d7 7d bf dc a9 6c bf cb 38 28 bf
       -0.8293522 -0.9915648 -0.92446685 -0.6571166
0000d0 3e ff 39 bf 42 49 87 bf 80 cf 6f bf 54 16 3e bf
       -0.72655094 -1.0569232 -0.93675995 -0.7425282
0000e0 a2 73 6f bf 33 30 66 bf 99 98 1f bf d3 43 78 bf
       -0.93535817 -0.89917296 -0.6234222 -0.9697849
0000f0 01 34 48 bf 14 77 30 bf 26 f3 4c bf cc 5f 56 bf
       -0.7820435 -0.689317 -0.80058515 -0.83739924
000100 a9 a4 3a bf d9 af 7b bf b3 03 5c bf 45 b5 3a bf
       -0.729075 -0.983152 -0.85943145 -0.72932845
000110 d0 cd 29 bf 8a c3 91 bf ce 3f 84 bf d8 62 50 bf
       -0.6632967 -1.1387799 -1.0331972 -0.81400824
000120 85 68 28 bf f7 86 83 bf cc f7 29 bf f1 19 72 bf
       -0.65784484 -1.0275563 -0.66393733 -0.94570833
000130 7d f4 33 bf ce 26 86 bf 77 50 7f bf 4b e0 56 bf
       -0.70294935 -1.0480592 -0.99732155 -0.83935994

bias f4 [5]
000000 34 29 c6 40 48 9b c4 c0 df eb 07 3f 86 ab a7 bf
       6.1925297 -6.143955 0.53094286 -1.309922
000010 51 13 80 bf
       -1.0005895
