Apps/oect reservoir computing/results/拉伸/downsampled_img_mode.pt (torch, 1895 bytes, 2 tensors)

weight f4 [5, 16]
0	0xbed4d302	-0.41567236
1	0xbeaa92d5	-0.3331515
2	0xbf866577	-1.0499715
3	0xbf244d38	-0.64180326
4	0xbf44306b	-0.7663638
5	0xbf164df9	-0.58712727
6	0xbf9e8d0d	-1.2386795
7	0xbfeb1415	-1.8365504
8	0xbfb34423	-1.4005169
9	0xbf9dcd99	-1.2328368
10	0xbf2367a0	-0.63829994
11	0xbf941f12	-1.1571982
12	0xbfa6892b	-1.301061
13	0xbeae0dd7	-0.33994934
14	0xbf428610	-0.75985813
15	0xbf9113ad	-1.133413
16	0x3f8ac69c	1.0841861
17	0x3f6cda07	0.92520183
18	0x3f6dbe92	0.9286891
19	0x3f47df81	0.78075415
20	0x3f912c6e	1.1341684
21	0x3f619f39	0.8813358
22	0x3f813bf1	1.0096418
23	0x3f7524a5	0.9575904
24	0x3f095dea	0.53658926
25	0x3f223d88	0.6337514
26	0x3f19c2f7	0.6006312
27	0x3f333d73	0.7001564
28	0x3f3cf6d4	0.7381413
29	0x3f47f5ca	0.7810942
30	0x3f716e47	0.94308895
31	0x3f7a91e7	0.9787888
32	0xbe751833	-0.23935013
33	0xbda5f7af	-0.081038825
34	0x3d2ade59	0.041715953
35	0xbc9b33fb	-0.018945685
36	0xbe5bdd85	-0.21471222
37	0x3cff2e7a	0.031150091
38	0x3eb82317	0.3596427
39	0x3ec568f8	0.38556647
40	0x3e7da34b	0.24769323
41	0x3ef7f880	0.48431778
42	0x3e608f3a	0.21929637
43	0x3e448f43	0.19195275
44	0x3ed0a4a8	0.40750623
45	0x3ebc3ac7	0.36763594
46	0x3e83ab0a	0.2571643
47	0x3d101190	0.035173
48	0xbf46122f	-0.77371496
49	0xbf219003	-0.6311037
50	0xbf388506	-0.7207798
51	0xbf813920	-1.0095558
52	0xbf45464e	-0.770604
53	0xbf6b2c88	-0.91864824
54	0xbf5648e3	-0.83704966
55	0xbf586651	-0.8453112
56	0xbf647d4c	-0.8925369
57	0xbf176079	-0.5913158
58	0xbf5544f2	-0.8330833
59	0xbf2efd3a	-0.68355143
60	0xbf856776	-1.0422199
61	0xbf375e2a	-0.7162806
62	0xbf3e07a9	-0.7423044
63	0xbf846b2e	-1.0345209
64	0xbf41c832	-0.756961
65	0xbf88339c	-1.064075
66	0xbf5e5d2b	-0.86860913
67	0xbf2f3826	-0.6844505
68	0xbf705cba	-0.9389149
69	0xbf718b6f	-0.94353384
70	0xbf396c97	-0.7243132
71	0xbf2d6fba	-0.67748606
72	0xbf52f895	-0.82410556
73	0xbf3414e2	-0.70344365
74	0xbf50eb74	-0.8160927
75	0xbf82e23b	-1.022529
76	0xbf3cbea4	-0.73728395
77	0xbf21453d	-0.62996274
78	0xbf1b6718	-0.60704184
79	0xbf651734	-0.8948853

bias f4 [5]
0	0x40d5db73	6.683038
1	0xc0bf32a8	-5.9749336
2	0x3f2e4df2	0.68087685
3	0xbfa169d3	-1.261042
4	0xbf74e694	-0.95664334
